{"class_name": "Sequential", "keras_version": "1.2.0", "config": [{"class_name": "Convolution2D", "config": {"b_regularizer": null, "W_constraint": null, "b_constraint": null, "name": "convolution2d_216", "activity_regularizer": null, "trainable": true, "dim_ordering": "tf", "nb_col": 5, "subsample": [2, 2], "init": "glorot_uniform", "bias": true, "nb_filter": 24, "input_dtype": "float32", "border_mode": "valid", "batch_input_shape": [null, 160, 320, 3], "W_regularizer": null, "activation": "linear", "nb_row": 5}}, {"class_name": "Activation", "config": {"activation": "relu", "trainable": true, "name": "activation_216"}}, {"class_name": "Convolution2D", "config": {"W_constraint": null, "b_constraint": null, "name": "convolution2d_217", "activity_regularizer": null, "trainable": true, "dim_ordering": "tf", "nb_col": 5, "subsample": [2, 2], "init": "glorot_uniform", "bias": true, "nb_filter": 36, "border_mode": "valid", "b_regularizer": null, "W_regularizer": null, "activation": "linear", "nb_row": 5}}, {"class_name": "Activation", "config": {"activation": "relu", "trainable": true, "name": "activation_217"}}, {"class_name": "Convolution2D", "config": {"W_constraint": null, "b_constraint": null, "name": "convolution2d_218", "activity_regularizer": null, "trainable": true, "dim_ordering": "tf", "nb_col": 5, "subsample": [2, 2], "init": "glorot_uniform", "bias": true, "nb_filter": 48, "border_mode": "valid", "b_regularizer": null, "W_regularizer": null, "activation": "linear", "nb_row": 5}}, {"class_name": "Activation", "config": {"activation": "relu", "trainable": true, "name": "activation_218"}}, {"class_name": "Convolution2D", "config": {"W_constraint": null, "b_constraint": null, "name": "convolution2d_219", "activity_regularizer": null, "trainable": true, "dim_ordering": "tf", "nb_col": 3, "subsample": [2, 2], "init": "glorot_uniform", "bias": true, "nb_filter": 64, "border_mode": "valid", "b_regularizer": null, "W_regularizer": null, "activation": "linear", "nb_row": 3}}, {"class_name": "Activation", "config": {"activation": "relu", "trainable": true, "name": "activation_219"}}, {"class_name": "Convolution2D", "config": {"W_constraint": null, "b_constraint": null, "name": "convolution2d_220", "activity_regularizer": null, "trainable": true, "dim_ordering": "tf", "nb_col": 3, "subsample": [2, 2], "init": "glorot_uniform", "bias": true, "nb_filter": 128, "border_mode": "valid", "b_regularizer": null, "W_regularizer": null, "activation": "linear", "nb_row": 3}}, {"class_name": "Activation", "config": {"activation": "relu", "trainable": true, "name": "activation_220"}}, {"class_name": "Flatten", "config": {"trainable": true, "name": "flatten_44"}}, {"class_name": "Dense", "config": {"W_constraint": null, "b_constraint": null, "name": "dense_173", "activity_regularizer": null, "trainable": true, "init": "glorot_uniform", "bias": true, "input_dim": 3072, "b_regularizer": null, "W_regularizer": null, "activation": "relu", "output_dim": 100}}, {"class_name": "Dense", "config": {"W_constraint": null, "b_constraint": null, "name": "dense_174", "activity_regularizer": null, "trainable": true, "init": "glorot_uniform", "bias": true, "input_dim": 100, "b_regularizer": null, "W_regularizer": null, "activation": "relu", "output_dim": 50}}, {"class_name": "Dense", "config": {"W_constraint": null, "b_constraint": null, "name": "dense_175", "activity_regularizer": null, "trainable": true, "init": "glorot_uniform", "bias": true, "input_dim": 50, "b_regularizer": null, "W_regularizer": null, "activation": "tanh", "output_dim": 10}}, {"class_name": "Dense", "config": {"W_constraint": null, "b_constraint": null, "name": "dense_176", "activity_regularizer": null, "trainable": true, "init": "glorot_uniform", "bias": true, "input_dim": 10, "b_regularizer": null, "W_regularizer": null, "activation": "tanh", "output_dim": 1}}]}